checkpoint_critic.pth (torch, 201039 bytes, 7 tensors)

fcs1.weight f4 [200, 33]
-0.05024431 0.08453076 0.02160129 -0.05023162 0.03260567 0.02536231 0.054835707 -0.006271327
0.02568272 0.019663936 -0.10414213 0.0069071325 0.05907283 -0.18315674 0.2001552 -0.04256079
-0.062216204 0.14198345 0.101073176 0.1435216 0.054357838 0.06584576 0.07299212 -0.10248784
0.06296067 0.028598929 -0.14028615 0.029044434 0.059749212 -3.7301915e-38 -0.029044434 -5.348412e-38
0.087395504 -0.059994273 0.11190581 0.020524086 -0.09644571 0.05294133 0.034946058 0.055597454
-0.0115315085 -0.032997377 0.034409303 -0.022599414 -0.086778715 -0.06529524 -0.04760433 0.12409662
-0.026924253 0.046576943 0.032429464 0.09068886 -0.09564443 0.07142358 -0.055356443 0.105486184
-0.027572738 -0.058197487 0.11618259 0.027075542 0.048830066 -0.1675585 1.3146934e-37 -0.048830066
8.654129e-38 0.029499508 -0.039292064 0.095474355 -0.008809822 -0.049884453 -0.008000252 -0.043686297
0.008705999 0.07942037 0.097794555 -0.059064105 -0.045995597 0.008711985 -0.065180294 0.045567207
0.08523133 0.0070561254 -0.0007758807 -0.066526085 0.06034678 0.02079468 0.014293938 -0.009260178
-0.060482178 0.233802 0.09563782 0.03286666 -0.16367961 0.094803095 -0.039796904 -1.0932465e-37
-0.094803095 9.415407e-38 -0.016763097 0.0010285897 0.03280951 -0.0005371807 -0.01657517 -0.00428489
0.010365798 -0.0028197241 0.015247924 -0.0012668662 -0.0017939516 0.000181894 0.028424073 -0.0021155002
0.0080631105 0.037207007 0.00080066646 -0.0066340063 0.020247132 0.001210764 0.03330365 0.0330536
-0.014352645 0.0010547977 0.017692644 -0.007271779 0.015735263 0.010987503 0.023215022 -0.01236579
-7.638774e-38 -0.023215022 -1.510225e-38 0.0020580734 0.010930474 0.121954 0.0074188034 -0.024514796
0.01736532 0.007111558 -0.0027623174 0.013117795 -0.0077623506 0.0038105918 -0.044242166 0.08224183
0.04142372 -0.015941128 0.120787844 0.017938448 -0.029983932 0.013908785 -0.023697393 -0.08885541
0.13320617 -0.0014410618 -0.11735778 0.02367531 -0.00981269 -0.071729206 -0.018019458 0.02407261
0.014037099 -8.8254943e-38 -0.02407261 -3.8436832e-38 -0.028928848 -0.032236993 0.12396466 0.04247354
-0.0011178174 -0.011566893 -0.08849645 0.029466983 0.014294021 -0.008742354 -0.0025462527 0.08810906
0.12238903 -0.021775793 0.023416892 0.07866498 0.11260016 -0.030209145 -0.047789656 0.0010478772
-0.06500631 0.16258162 0.021297786 -0.06534667 0.053740166 0.050246317 0.044080075 0.07170606
0.008210716 -0.06318981 5.4095036e-38 -0.008210716 1.1278297e-37 0.031353742 -0.036937673 0.051640585
0.008101469 -0.024603177 -0.030756805 0.015148885 -0.003102962 -0.00515702 -0.03289342 -0.022188162
-0.036000703 -0.020528339 0.00915088 -0.015244856 0.06295009 0.023498483 0.014983906 -0.026408302
-0.058551345 0.026829138 0.00044250186 0.009400222 -0.059735816 -0.022086646 0.02498527 0.013904639
-0.02268419 0.020976406 0.029272055 9.127987e-38 -0.020976406 4.539396e-38 -0.04096175 -0.022259846
0.17239806 0.032076985 -0.11723103 0.004573767 0.025743423 0.023301635 -0.0061435336 -0.06558932
0.007574781 0.03177984 -0.09860048 0.013986375 0.002903919 0.15237696 0.013361811 0.0530325
0.07595179 -0.0056824884 0.00089112256 -0.0359639 -0.013212631 0.024726491 -0.051655665 -0.07076253
00000000: facc 4dbd 771e ad3d 30f5 b03c acbf 4dbd
00000010: 868d 053d 9fc4 cf3c 689b 603d b47f cdbb
00000020: 9164 d23c 4316 a13c 7848 d5bd 3a55 e23b
00000030: 5af6 713d 718d 3bbe 7cf5 4c3e 3954 2ebd
00000040: 6bd6 7ebd 1c64 113e 74ff ce3d 54f7 123e
00000050: 53a6 5e3d 24da 863d e57c 953d 25e5 d1bd
00000060: 86f1 803d 4d48 ea3c 2ca7 0fbe 98ee ed3c
00000070: 97bb 743d 4817 4b81 98ee edbc fe98 9181
00000080: 6afc b23d 8ebc 75bd e02e e53d 2122 a83c
00000090: 5485 c5bd 02d9 583d 9923 0f3d 28ba 633d
000000a0: a7ee 3cbc 4228 07bd c5f0 0c3d 6822 b9bc
000000b0: 0ab9 b1bd 83b9 85bd c2fc 42bd 5e26 fe3d
000000c0: 4090 dcbc 77c7 3e3d c2d4 043d 15bb b93d
000000d0: 3ae1 c3bd 8746 923d 70bd 62bd 2409 d83d
000000e0: 39e0 e1bc 7d60 6ebd 23f1 ed3d 87cd dd3c
000000f0: 0902 483d 7594 2bbe 61f2 3202 0902 48bd
00000100: 7a96 eb01 f4a8 f13c b7f0 20bd 0f88 c33d
00000110: 1257 10bc a453 4cbd 7d13 03bc 67f0 32bd
00000120: 9ba3 0e3c 26a7 a23d 8348 c83d 34ed 71bd
00000130: e165 3cbd b7bc 0e3c 3f7d 85bd aea4 3a3d
00000140: c38d ae3d 1237 e73b 7964 4bba d43e 88bd
00000150: 2f2e 773d 9b59 aa3c 1f31 6a3c 00b8 17bc
00000160: 29bc 77bd cb69 6f3e c3dd c33d 319f 063d
00000170: a19b 27be 2028 c23d 1402 23bd 15ce 1482
00000180: 2028 c2bd e827 0002 c352 89bc bed1 863a
00000190: 4463 063d 96d1 0cba a7c8 87bc 4368 8cbb
000001a0: 4fd5 293c 1fcb 38bb 6ed2 793c fa0c a6ba
000001b0: 0723 ebba cdba 3e39 9ad9 e83c 34a4 0abb
000001c0: 231b 043c 6066 183d d1e3 513a 1462 d9bb
000001d0: 50dd a53c 80b2 9e3a 6869 083d 3663 073d
000001e0: 5b27 6bbc 2341 8a3a 2af0 903c 1a48 eebb
000001f0: 3de7 803c ee04 343c 6e2d be3c e299 4abc
00000200: 7cf2 cf81 6e2d bebc ee72 a480 bee0 063b
00000210: bb15 333c 05c3 f93d 6f19 f33b 41d3 c8bc
00000220: b741 8e3c 1308 e93b ff07 35bb 05ec 563c
00000230: 515b febb 1fbb 793b 4637 35bd 686e a83d
00000240: ebab 293d f896 82bc 9e5f f73d a7f3 923c
00000250: dda0 f5bc ace1 633c 0921 c2bc d3f9 b5bd
00000260: 3367 083e 03e2 bcba 4759 f0bd b9f2 c13c
00000270: 68c5 20bc c3e6 92bd 8b9d 93bc ec33 c53c
00000280: dcfb 653c b840 f081 ec33 c5bc 2045 5181
00000290: 31fc ecbc f00a 04bd 2fe1 fd3d bcf8 2d3d
000002a0: ba83 92ba 1183 3dbc a03d b5bd be64 f13c
000002b0: 7831 6a3c 173c 0fbc 08df 26bb 8672 b43d
000002c0: 1aa7 fa3d 2663 b2bc c8d4 bf3c 1b1b a13d
000002d0: ea9a e63d 2b79 f7bc 16bf 43bd ed58 893a
000002e0: 0722 85bd cc7b 263e b278 ae3c 7ad4 85bd
000002f0: a61e 5c3d 15cf 4d3d 4f8d 343d a0da 923d
00000300: 3d86 063c a969 81bd bd42 9301 3d86 06bc
00000310: 2183 1902 c86c 003d f54b 17bd 1485 533d
00000320: 06bc 043c 9a8c c9bc b2f5 fbbc 0733 783c
00000330: 105b 4bbb 38fc a8bb 40bb 06bd f3c3 b5bc
00000340: 7975 13bd 0c2b a8bc 93ed 153c 8fc5 79bc
00000350: faeb 803d e47f c03c 0f7f 753c 3956 d8bc
00000360: 89d3 6fbd c8c8 db3c 98ff e739 6403 1a3c
00000370: 8bad 74bd 0eef b4bc e9ad cc3c 48d0 633c
00000380: 32d4 b9bc b6d6 ab3c f3cb ef3c c97c f801
00000390: b6d6 abbc f225 7701 82c7 27bd 485a b6bc
000003a0: 1e89 303e 2863 033d d216 f0bd 8adf 953b
000003b0: dfe3 d23c 12e3 be3c b24f c9bb b253 86bd
000003c0: de35 f83b 942b 023d 0cef c9bd 1c27 653c
000003d0: ad4f 3e3b b508 1c3e 7feb 5a3c 9b38 593d
000003e0: 9d8c 9b3d 2b34 babb 399a 693a e24e 13bd
000003f0: cb79 58bc 368f ca3c e494 53bd f2eb 90bd

fcs1.bias f4 [200]
-0.029044468 -0.048830032 -0.09480306 -0.023215018 -0.024072621 -0.008210734 -0.020976411 -0.052099563
-0.03121446 -0.05747321 -0.05434192 -0.041924503 -0.08788893 -0.074117295 0.031744458 -0.095454246
-0.07251507 -0.046412513 -0.01321586 -0.013844822 -0.040546548 -0.026269535 -0.065517955 -0.09221214
-0.045821697 -0.15339315 -0.030607702 -0.05282451 -0.0375962 -0.023624426 -0.04124958 -0.058298107
-0.11909232 -0.04967448 -0.07654437 -0.06038337 -0.016727224 -0.0400157 -0.04256033 -0.011278984
-0.04022364 -0.040470313 -0.049019694 -0.039237052 -0.014433514 0.010672622 -0.033009626 -0.06705975
-0.05939471 -0.018231492 -0.04816346 -0.029941041 -0.036565665 -0.053976398 -0.07924571 -0.037430752
-0.048459623 -0.045210913 -0.031745214 -0.025385384 -0.05627358 -0.068317525 -0.0827315 -0.017590778
-0.030676112 -0.021822104 -0.106537536 -0.031700257 -0.042722885 -0.041941017 -0.074797906 -0.025679333
-0.10598972 -0.13218237 0.014345675 -0.08541776 -0.03757334 -0.061378844 -0.02188045 -0.017300013
-0.04575826 -0.035787035 -0.055490814 -0.13386191 -0.026327625 -0.054071464 -0.07125833 -0.04512686
-0.022223704 -0.09088751 -0.06601506 -0.020721184 -0.105030015 -0.08382663 -0.08841813 -0.06508629
-0.04529755 -0.06150587 -0.030683132 -0.01069508 -0.014357822 -0.03401893 -0.046768878 -0.051025648
-0.05410265 -0.057180874 -0.0007262841 -0.03625644 -0.052338246 -0.0958304 -0.099973045 -0.04957014
-0.079510234 0.016582543 -0.056042116 -0.029579887 -0.092286035 -0.07046087 -0.03420007 -0.062183727
-0.038583133 -0.1216687 0.077383004 -0.04710962 -0.00075317954 -0.09494185 -0.08079788 -0.033157453
-0.070298344 -0.056087617 -0.042533893 -0.054663066 -0.029117294 -0.16268432 -0.04410079 -0.06209768
-0.028504638 -0.085768394 -0.10102631 -0.042083982 -0.080238834 -0.040791612 -0.033238824 -0.06255689
-0.0036243964 -0.05259364 -0.035966583 0.09755738 -0.020699594 -0.037813786 -0.04610722 -0.06096884
-0.0779902 -0.018712992 -0.039213702 -0.09100343 -0.06779732 -0.043402113 -0.08238563 -0.04363267
-0.036501497 -0.06586395 -0.036775917 -0.07836197 -0.0443418 -0.07901327 -0.035559785 -0.09145333
-0.071779445 -0.043164764 -0.025847003 -0.064617746 0.07626422 -0.08328402 -0.020436022 -0.031801794
-0.051639605 -0.020228734 -0.058850188 -0.05839579 -0.022790918 -0.06259442 -0.12802078 -0.025765387
-0.046721883 -0.02616274 0.049567264 -0.04495826 -0.081081815 -0.044056527 -0.028923191 -0.02558686
-0.063536435 -0.055838753 -0.10007294 -0.10512335 -0.061183322 -0.07898175 -0.05523023 -0.05862825
00000000: aaee edbc 0002 48bd 1b28 c2bd 6c2d bebc
00000010: f233 c5bc 5186 06bc b9d6 abbc 5a66 55bd
00000020: 78b5 ffbc 0769 6bbd a295 5ebd 07b9 2bbd
00000030: 1dff b3bd cfca 97bd 7a06 023d 847d c3bd
00000040: c882 94bd 0c1b 3ebd 5687 58bc 64d5 62bc
00000050: 2314 26bd 3533 d7bc 472e 86bd b8d9 bcbd
00000060: 88af 3bbd 1813 1dbe 01bd fabc 835e 58bd
00000070: 79fe 19bd 0388 c1bc 52f5 28bd ffc9 6ebd
00000080: ade6 f3bd 7877 4bbd 4bc3 9cbd 8d54 77bd
00000090: 8807 89bc 81e7 23bd be53 2ebd 7dcb 38bc
000000a0: 8bc1 24bd 33c4 25bd e0c8 48bd 08b7 20bd
000000b0: 8c7a 6cbc 39dc 2e3c 1a35 07bd 9f56 89bd
000000c0: de47 73bd 365a 95bc 0c47 45bd ea46 f5bc
000000d0: e1c5 15bd 5b16 5dbd 934b a2bd fd50 19bd
000000e0: 997d 46bd 142f 39bd 4507 02bd 02f5 cfbc
000000f0: 207f 66bd 0fea 8bbd 226f a9bd 891a 90bc
00000100: 784c fbbc 45c4 b2bc 5a30 dabd 21d8 01bd
00000110: 31fe 2ebd 58ca 2bbd a52f 99bd 775d d2bc
00000120: 2311 d9bd d15a 07be 1f0a 6b3c 82ef aebd
00000130: 81e6 19bd 6268 7bbd a13e b3bc c2b8 8dbc
00000140: 036d 3bbd 6d95 12bd 564a 63bd 1913 09be
00000150: 08ad d7bc 0a7a 5dbd e3ef 91bd f1d6 38bd
00000160: 7c0e b6bc 3b23 babd e732 87bd 79bf a9bc
00000170: fa19 d7bd 4cad abbd 9114 b5bd f64b 85bd
00000180: ec89 39bd 94ed 7bbd 315b fbbc 6b3a 2fbc
00000190: 123d 6bbc 6f57 0bbd b990 3fbd 4500 51bd
000001a0: be9a 5dbd 7e36 6abd 1a64 3eba a281 14bd
000001b0: a160 56bd bb42 c4bd abbe ccbd 0f0a 4bbd
000001c0: 43d6 a2bd 1dd8 873c 6b8c 65bd 8551 f2bc
000001d0: 7600 bdbd ca4d 90bd 5f15 0cbd 5db4 7ebd
000001e0: 5909 1ebd 702d f9bd fb7a 9e3d 04f6 40bd
000001f0: 0671 45ba df70 c2bd 5c79 a5bd 1cd0 07bd
00000200: 94f8 8fbd 21bc 65bd 0538 2ebd 61e6 5fbd
00000210: 6487 eebc b896 26be 08a3 34bd 235a 7ebd
00000220: 8f82 e9bc 57a7 afbd e2e6 cebd 4160 2cbd
00000230: 4254 a4bd 1b15 27bd 6f25 08bd d41d 80bd
00000240: 4887 6dbb 6e6c 57bd b251 13bd 2acc c73d
00000250: 3292 a9bc a1e2 1abd edda 3cbd 76ba 79bd
00000260: 53b9 9fbd fd4b 99bc 8c9e 20bd 0260 babd
00000270: 52d9 8abd 6ac6 31bd ccb9 a8bd 2cb8 32bd
00000280: 9882 15bd aee3 86bd 58a2 16bd 3e7c a0bd
00000290: bf9f 35bd b6d1 a1bd 23a7 11bd e24b bbbd
000002a0: 1a01 93bd 89cd 30bd 18bd d3bc 4f56 84bd
000002b0: 6a30 9c3d d090 aabd 7269 a7bc 9942 02bd
000002c0: 0d84 53bd bbb6 a5bc e50c 71bd 6d30 6fbd
000002d0: 05b4 babc 8131 80bd e117 03be ef11 d3bc
000002e0: 725f 3fbd 3e53 d6bc 0b07 4b3d 2726 38bd
000002f0: 390e a6bd 9e74 34bd 54f0 ecbc 899b d1bc
00000300: 641f 82bd 2db7 64bd 0bf3 ccbd e94a d7bd
00000310: 5d9b 7abd 2fc1 a1bd 1839 62bd 2d24 70bd

fc2.weight f4 [128, 204]
2.3429593e-38 7.8515475e-37 1.4024024e-35 5.439639e-38 9.1974925e-38 -3.7745078e-38 3.3854127e-38 3.9243588e-38
-1.0955986e-37 -6.139705e-39 3.228455e-38 -2.8766965e-38 3.6127565e-38 -1.0418873e-38 -8.267051e-38 -8.9997833e-38
-5.8443905e-38 -6.464014e-38 -3.562371e-38 -8.750024e-38 -1.7931804e-16 1.0474569e-37 -5.7646224e-38 9.720647e-38
1.2686522e-37 -5.3534635e-38 8.7502087e-38 -1.1646594e-37 1.0298919e-37 5.077283e-38 -3.780305e-18 3.783149e-39
-6.611195e-34 3.5303831e-38 4.0559093e-38 4.84069e-38 6.783684e-38 -4.8172364e-38 -5.0265024e-38 -5.024858e-38
-1.3803512e-37 -7.901192e-39 3.5382887e-38 -1.8408858e-38 -2.830179e-38 -1.2651583e-37 7.854456e-38 4.8893663e-38
-1.9250164e-38 4.3449776e-38 -3.40505e-38 -1.3226314e-37 -1.0478581e-37 -1.16657e-37 9.767234e-38 -3.7761182e-38
9.75679e-38 5.2428113e-38 -9.471993e-38 1.2386463e-37 1.0171299e-37 2.0526183e-38 -1.0164844e-37 -4.98458e-38
-1.885101e-38 -5.0548855e-38 -3.9408542e-15 -1.1300915e-37 7.2147275e-38 -1.5416475e-38 -5.5089364e-38 -9.3846337e-38
-1.3786961e-37 8.2848414e-38 -4.066302e-21 4.1757237e-38 -5.35485e-38 -8.885195e-39 8.99188e-38 -7.057689e-38
2.8294747e-38 -1.260959e-37 -1.3369381e-37 -2.5601546e-24 -1.593632e-38 5.749682e-38 -3.0950132e-38 -4.5521035e-38
-1.7403824e-38 -9.224406e-38 -8.098466e-38 2.680952e-38 -2.411219e-38 -2.0922514e-38 6.045123e-38 1.2738894e-37
-9.181896e-39 -8.0530106e-38 8.015803e-38 3.2450866e-38 -2.0986059e-38 3.6729826e-38 -4.479987e-38 1.212916e-37
-1.5901908e-38 7.520842e-38 -4.054861e-38 -9.663151e-38 -6.17572e-38 -9.087632e-38 -5.6755755e-38 7.608091e-38
3.8826015e-38 -2.1706437e-38 8.620276e-38 -1.2545145e-37 1.3116496e-37 7.379428e-38 -8.9089355e-38 -2.0958403e-38
4.002354e-38 -6.986625e-38 -7.8372134e-38 1.2284579e-37 -1.0166486e-38 -5.6391737e-38 -3.372678e-38 -5.4397666e-38
-1.373058e-38 -9.264051e-38 -8.2976695e-38 -4.899901e-38 -4.661373e-39 -1.1179161e-37 1.9744203e-35 -1.4624532e-38
1.0261803e-37 -7.6212543e-38 -4.015595e-39 -7.6541837e-38 2.749712e-39 1.198432e-37 -8.927106e-38 5.969028e-38
-4.5706438e-38 1.0562527e-37 -2.5853475e-38 -6.772932e-27 -3.0072678e-38 -5.5491223e-38 -2.3752923e-38 -8.743902e-38
1.5094121e-38 -7.4740877e-38 -5.919262e-38 2.249493e-38 -4.6315154e-38 4.2959198e-38 -7.219211e-38 -1.7620315e-38
-1.1222432e-37 4.4356766e-38 -1.0030883e-37 -3.360604e-38 -5.579479e-38 -5.000675e-38 1.093931e-37 1.0590538e-37
-9.415658e-38 -3.8292986e-38 -2.0377403e-38 1.0360608e-38 1.2209639e-37 1.534301e-38 4.127277e-38 -1.1741558e-37
3.4982217e-38 -1.7257605e-22 -1.8057216e-38 6.8733746e-38 3.759176e-38 4.6533624e-38 -1.3203725e-38 1.0967594e-37
8.620594e-38 1.511943e-38 1.2131312e-37 -3.1778092e-38 -6.425577e-39 -6.24559e-40 7.843018e-38 7.864828e-38
-3.060552e-38 6.9415304e-38 -1.1691856e-37 -6.6306943e-38 5.2690425e-38 3.672712e-38 -8.303302e-38 -6.5793743e-38
-3.8200713e-26 -2.0112666e-24 2.8388437e-21 4.5896287e-25 -0.00029228383 -0.032534834 -0.03120977 0.00042523528
-0.0134234205 -0.024482973 -0.010010543 -0.01647063 -0.010255565 -0.027919095 -0.000105829124 -0.025821391
-0.041019186 -0.0057740794 -0.0029843498 -0.02493001 -0.010300087 0.04651043 0.014421182 -6.1160885e-05
-0.013524541 -0.05071423 -0.020032367 2.80058e-08 -0.015297548 0.044472728 -1.3416831e-09 0.017786762
-0.017490411 0.027162097 -0.00042794034 -4.844933e-06 -0.034402404 0.012038796 -3.9920852e-08 -0.008817727
0.0029870505 -5.402636e-05 -0.0004922211 0.053179696 -0.0028702437 -0.0071366373 -0.0038838584 0.0016026767
-0.029510738 0.00416958 -4.906899e-06 -0.05170243 0.00995249 -0.006940496 -6.585031e-06 -0.0063903327
00000000: 2c20 ff00 5096 8503 0621 9505 c014 9401
00000010: 2b61 fa01 f680 4d81 c451 3801 94a9 5501
00000020: 0a20 1582 00db 4280 18c6 2f01 4c9f 1c81
00000030: 7ab2 4401 9473 7180 f00c e181 56ff f481
00000040: 7519 9f81 9af7 af81 34f4 4181 c432 ee81
00000050: 58bd 4ea5 8c92 0e02 8eed 9c81 834f 0402
00000060: 14ae 2c02 32bc 9181 0e34 ee01 7586 1e82
00000070: 7f2e 0c02 8037 8a01 f977 8ba2 e131 2900
00000080: d4b1 5b88 5c36 4001 20d3 5c01 b0c6 8301
00000090: 61ab b801 3d23 8381 9cd5 8881 26ca 8881
000000a0: 38e2 3b82 4f09 5680 8ca4 4001 6874 c880
000000b0: f016 1a81 5534 2c82 92d1 d501 e919 8501
000000c0: a09d d180 2690 6c01 7863 3981 fa06 3482
000000d0: 87a0 0e82 08c9 1e82 d8f1 0402 6897 4d81
000000e0: 74cd 0402 10b9 8e01 14ed 0082 8698 2802
000000f0: ce71 0a02 a682 df00 505b 0a82 74b1 8781
00000100: f244 cd80 699b 8981 f7fb 8da7 f1d1 1982
00000110: 5067 c401 dcde a780 aff7 9581 5a79 ff81
00000120: 8ca8 3b82 eb88 e101 dc9e 999d 1859 6301
00000130: dcc5 9181 4fc0 6080 42c8 f401 ea20 c081
00000140: 1f0d 1a01 02a2 2b82 7ef9 3582 1615 4698
00000150: fa87 ad80 6f85 9c01 3082 2881 10d7 7781
00000160: c882 bd80 ba1c fb81 1276 dc81 04f7 1101
00000170: 7d47 0381 75d3 e380 5c90 a401 9164 2d02
00000180: 64fb 6380 4b39 db81 fe35 da01 e8ad 3001
00000190: 9884 e480 e8f9 4701 e8e9 7381 f417 2502
000001a0: 0d28 ad80 9ebc cc01 84c4 5c81 2b87 0382
000001b0: 7d1e a881 8d63 f781 fd80 9a81 a81c cf01
000001c0: 9163 5301 b75c ec80 8eaa ea01 73c1 2a82
000001d0: 5188 3202 1be3 c801 3886 f281 8037 e480
000001e0: ace8 5901 ac31 be81 6859 d581 8335 2702
000001f0: 07b4 6e80 4e83 9981 45a0 3781 a415 9481
00000200: 4583 9580 0331 fc81 51e2 e181 5363 8581
00000210: 03c2 3280 b129 1882 d5f4 d105 3f3f 9f80
00000220: 2aad 0b02 6478 cf81 d8b9 2b80 e05d d081
00000230: 14f1 1d00 431f 2302 d904 f381 0e7e a201
00000240: 7ad9 7881 09c5 0f02 7cc2 0c81 d826 0694
00000250: 32bb 2381 bd0f 9781 be52 0181 1a08 ee81
00000260: 455c a400 ca76 cb81 3c23 a181 b6f2 f400
00000270: e729 7c81 62e4 6901 8f86 c481 45de bf80
00000280: 78c0 1882 4f80 7101 8788 0882 fcf7 3681
00000290: 4be3 9781 9e21 8881 efe5 1402 a426 1002
000002a0: c828 0082 a27c 5081 e9e3 dd80 29d1 7000
000002b0: 6230 2602 1212 a700 d8b5 6001 5cd1 1f82
000002c0: 1876 3e01 b3a1 509b 2ca0 c480 6e1c bb01
000002d0: 44ab 4c01 685a 7d01 9dc6 8f80 7d48 1502
000002e0: c6ac ea01 d2a2 a400 741f 2502 3204 2d81
000002f0: e5f7 4580 04cd 0680 dc81 d501 da19 d601
00000300: dea1 2681 68f7 bc01 2c24 1f82 3281 b481
00000310: de6f 8f01 22f6 4701 9209 e281 8c1b b381
00000320: 2829 3d95 3d9d 1b98 397f 561d c90a 0e17
00000330: ac3d 99b9 3f43 05bd a2ab ffbc 1df2 de39
00000340: e8ed 5bbc 8490 c8bc 4303 24bc 6aed 86bc
00000350: f506 28bc 96b6 e4bc 94f0 ddb8 6287 d3bc
00000360: bc03 28bd 7d34 bdbb 1595 43bb 053a ccbc
00000370: b2c1 28bc b881 3e3d d246 6c3c 8043 80b8
00000380: 0996 5dbc b9b9 4fbd eb1a a4bc 6891 f032
00000390: 91a2 7abc 0929 363d 4766 b8b0 8bb5 913c
000003a0: 0d48 8fbc 0c83 de3c 2e5d e0b9 a891 a2b6
000003b0: 89e9 0cbd 5f3e 453c 7175 2bb3 3a78 10bc
000003c0: 64c2 433b 5d9a 62b8 6608 01ba f4d2 593d
000003d0: b31a 3cbb 74da e9bb 5588 7ebb e810 d23a
000003e0: 81c0 f1bc f9a0 883b f1a5 a4b6 edc5 53bd
000003f0: c50f 233c 1a6d e3bb fcf4 dcb6 ff65 d1bb

fc2.bias f4 [128]
-2.9280237e-15 -0.10760659 -0.026844023 -0.25768185 -0.034253284 -0.024419362 -0.009066197 -0.035242613
-0.006507111 -0.023779605 -0.07271496 -0.12777114 -0.04243563 -0.049354754 -1.7145078e-06 -0.012259742
-0.031464882 -0.038220916 -0.003961888 -5.6528044e-08 -6.466948e-07 -0.012876363 -0.037642922 -0.173461
-0.020465072 -0.113223866 -0.15546781 -0.0038243185 -1.3915248e-05 -0.018612968 -0.0154611375 -0.008170647
-0.115164086 -0.05333395 -0.01526336 -0.06446877 -5.7819926e-07 -0.017496897 -0.09143768 -0.01212184
-4.975222e-09 -0.0126723945 -0.012175468 0.54067534 -0.008335607 0.4052285 -0.1558952 -0.08494061
-4.3273052e-16 -0.124467656 -1.28649135e-05 -0.0015687871 -0.042061962 -0.0018764761 0.025477253 -0.035895415
-0.00051858963 -0.0268976 -0.026233124 -0.027053965 -0.00022802067 -0.02599098 -1.4614553e-05 -0.014925071
-0.028968262 -0.022598116 -0.16745318 -6.814816e-18 -0.06276491 -0.15665272 -0.093247116 -0.0046635047
-0.059430476 -0.028784556 0.36171296 -0.03449647 -0.11656492 0.35609955 -0.03825391 -0.041526128
-0.0058678477 -6.356323e-05 -0.058829226 -0.095642045 -0.059219636 -0.036044907 -4.3655965e-10 -0.01034888
-3.7957578e-17 -0.054852452 0.008585684 -4.8894148e-05 -2.8289584e-14 -0.007989545 -0.013691662 -0.0010605586
-0.09413492 -0.00011026074 -0.044905532 -0.024183275 -0.08146577 -0.03881519 -0.030509604 -0.0074708094
-0.0057585575 -0.064094335 -0.009684228 -0.0004485577 -0.07170585 -0.022466822 -0.0151888905 -0.039599672
-0.346258 -0.00036052894 -0.10027519 -0.0015165602 -0.017878473 -0.028429938 -0.09765723 -0.017679485
-0.008126282 -3.1705487e-12 -0.030992113 -0.041962128 -0.038848244 -0.022736382 -0.098516524 -0.025274476
00000000: 81fc 52a7 d860 dcbd ffe7 dbbc e0ee 83be
00000010: 2c4d 0cbd 1d0b c8bc 638a 14bc 8f5a 10bd
00000020: 9a39 d5bb 72cd c2bc 95eb 94bd 70d6 02be
00000030: fcd0 2dbd 3628 4abd 0a1e e6b5 16dd 48bc
00000040: 52e1 00bd 898d 1cbd bad2 81bb 3ec9 72b3
00000050: 8798 2db5 61f7 52bc 772f 1abd c39f 31be
00000060: 5ea6 a7bc eae1 e7bd f432 1fbe 6ba1 7abb
00000070: 8975 69b7 397a 98bc b650 7dbc 2dde 05bc
00000080: 26db ebbd b374 5abd 2c13 7abc 3408 84bd
00000090: 8d35 1bb5 a755 8fbc ae43 bbbd af9a 46bc
000000a0: 84f2 aab1 e09f 4fbc 9d7b 47bc b369 0a3f
000000b0: 1292 08bc 1c7a cf3e fea2 1fbe 58f5 adbd
000000c0: c173 f9a5 e6e8 febd 62d6 57b7 c39f cdba
000000d0: 2a49 2cbd 17f4 f5ba acb5 d03c 1207 13bd
000000e0: f6f1 07ba 5b58 dcbc d9e6 d6bc 47a0 ddbc
000000f0: d518 6fb9 09eb d4bc 0731 75b7 4988 74bc
00000100: d94e edbc af1f b9bc d978 2bbe 1e6c fba2
00000110: e48a 80bd 9269 20be 58f8 bebd 50d0 98bb
00000120: 5f6d 73bd 97cd ebbc 7132 b93e 2c4c 0dbd
00000130: 97b9 eebd ae52 b63e 22b0 1cbd 4d17 2abd
00000140: 1347 c0bb 404d 85b8 eaf6 70bd fadf c3bd
00000150: 4a90 72bd d3a3 13bd 4f00 f0af 598e 29bc
00000160: 660c 2fa4 f7ac 60bd f8aa 0c3c b113 4db8
00000170: 57cf fea8 95e6 02bc fe52 60bc 7102 8bba
00000180: cfc9 c0bd c93b e7b8 ddee 37bd 011c c6bc
00000190: 87d7 a6bd adfc 1ebd 47ef f9bc b1cd f4bb
000001a0: 48b2 bcbb e443 83bd 99aa 1ebc 652c ebb9
000001b0: 84da 92bd 570c b8bc d3da 78bc 4433 22bd
000001c0: bb48 b1be 6005 bdb9 145d cdbd 51c7 c6ba
000001d0: e075 92bc e7e5 e8bc 8400 c8bd 91d4 90bc
000001e0: 1924 05bc 871b 5fac 2ce3 fdbc 7be0 2bbd
000001f0: 561f 1fbd a641 babc 08c3 c9bd 6b0c cfbc

fc3.weight f4 [128, 128]
6.2515624e-38 -1.1511894e-37 -1.0100719e-37 -7.545909e-14 -3.580339e-38 6.607664e-38 -1.123644e-38 -6.02169e-38
-7.479777e-38 -3.7422202e-38 2.8376574e-38 -4.708384e-18 -2.2952675e-38 -4.300256e-39 1.2046087e-37 -4.3011704e-38
-4.6682765e-38 1.534424e-38 5.067593e-38 -4.4814335e-38 1.0439048e-37 2.9903883e-38 -8.324334e-38 4.273976e-39
-5.789118e-38 3.2411888e-38 1.4102271e-36 2.155049e-38 -3.825227e-38 -1.0600944e-37 8.76174e-38 1.1050996e-37
1.9949027e-36 1.2533483e-38 1.0771e-40 -1.0349373e-37 -1.1173261e-37 3.740721e-39 -7.10583e-38 4.653878e-38
-5.0038384e-38 1.2153447e-37 6.8662414e-38 -9.716789e-12 4.78465e-38 -3.6453286e-14 -1.9871662e-38 -1.1986414e-37
-4.85273e-38 6.210796e-39 -1.2305598e-38 -8.644895e-38 2.8292524e-38 -4.7581045e-38 7.538988e-38 -5.217635e-39
-8.323815e-38 -2.9469374e-38 -6.149748e-38 2.8820578e-38 1.0685605e-37 4.923841e-38 -2.3744823e-38 9.561323e-38
3.935873e-38 -3.914929e-38 -1.0288855e-37 -1.0067371e-37 -2.2142189e-38 -1.415705e-38 2.3109029e-38 2.0781657e-38
1.0344324e-37 3.569264e-39 -1.4458635e-21 1.9080223e-38 -4.3316106e-38 -1.2618621e-17 3.355112e-39 2.5371518e-38
-1.059667e-37 5.533434e-38 8.29063e-38 2.0638189e-38 -3.559171e-38 -1.1627239e-37 5.327844e-38 3.0804632e-38
8.071983e-38 -1.3132222e-38 -1.0675638e-37 9.710653e-38 7.947838e-38 -1.4922977e-38 -9.767961e-38 -4.738633e-38
-5.3837046e-38 6.2873067e-38 5.572028e-38 -5.5856575e-38 8.562569e-38 9.24181e-38 -1.0248992e-37 1.1418852e-37
1.3498376e-38 7.855751e-38 -1.1692064e-37 -2.8182943e-38 1.8038797e-38 -9.626379e-38 9.837653e-39 -4.6602983e-38
-8.7809436e-13 -1.2293686e-37 1.3502697e-37 6.0299975e-38 4.757471e-38 -1.3067652e-37 -6.4432976e-38 -4.4379425e-38
1.0470854e-37 5.655135e-38 -9.353813e-39 6.8043937e-38 -3.621639e-38 3.265906e-38 -3.4025003e-34 -4.681379e-38
3.2022899e-38 -1.7338008e-38 3.8367558e-38 6.341985e-38 4.176079e-38 5.5948624e-38 -4.1442348e-38 -1.3733723e-37
5.176509e-38 1.1030812e-37 -5.10119e-38 -2.801949e-38 -2.80077e-39 2.390473e-38 3.4608025e-38 1.785799e-38
2.968926e-38 7.3163155e-38 8.0105305e-38 -1.0671007e-37 1.0793245e-37 3.7008595e-38 1.0431525e-37 3.47203e-40
-4.6754334e-38 -1.8991798e-38 -9.383503e-38 -1.389068e-37 7.565428e-38 7.7469917e-38 5.495459e-38 -1.3098047e-37
-3.7859335e-38 1.09084495e-26 -1.0845631e-37 -2.36318e-40 -7.195425e-38 -2.1613986e-38 -2.900724e-39 -4.0095353e-38
2.785893e-39 6.1639745e-38 1.1269302e-37 5.5346238e-05 9.608172e-38 -2.9147913e-09 7.6237615e-38 -2.3071642e-38
-2.8454632e-38 -3.8001213e-38 6.604788e-38 -2.3225725e-38 -1.0096669e-37 -5.697982e-39 9.7808e-41 9.548254e-39
5.538919e-38 3.361427e-38 6.020407e-38 -9.790437e-38 -9.863455e-38 8.767884e-38 -5.727284e-38 -5.9379944e-38
-2.489214e-38 6.022534e-39 3.510547e-38 1.3555072e-37 -3.67944e-39 2.5087704e-38 3.0091304e-38 4.1519218e-38
-5.9486936e-38 1.193559e-39 6.8112547e-09 3.132327e-36 2.302651e-39 -2.451077e-09 -1.1272472e-37 -6.582629e-38
4.7711584e-38 7.135943e-38 -6.61038e-38 6.500934e-38 5.570945e-38 3.738801e-38 -1.1785855e-37 -1.2128327e-37
-4.6005923e-38 -6.1053005e-38 1.7674015e-28 -8.4231967e-38 -3.1457144e-38 -3.9131517e-38 -3.2294762e-38 -4.6574369e-38
6.999022e-38 9.2272006e-38 -6.1423917e-38 1.180669e-38 5.552118e-38 1.0400428e-37 -1.6467335e-38 -7.198781e-38
-9.2803547e-38 4.1811125e-38 3.7194015e-38 -1.3019499e-37 6.3919445e-38 5.9752286e-38 -5.818154e-38 -1.1916907e-37
-9.991771e-38 -5.0317736e-38 -3.017565e-38 1.0920823e-38 -1.2855891e-37 -5.1627625e-38 -8.4202416e-38 -7.5245686e-38
-1.573832e-38 3.484183e-38 -1.0510565e-37 1.223971e-37 -3.047353e-39 -5.775285e-38 4.6546382e-38 1.0877413e-37
00000000: 082f aa01 19b1 1c82 de7b 0982 34eb a9a9
00000010: a4ee 4281 b2e0 b301 a05a 7a80 0eed a381
00000020: 709e cb81 f0be 4b81 2c7f 1a01 6eb5 ada2
00000030: b8ee f980 5dd3 2e80 7df6 2302 912d 6a81
00000040: 472a 7e81 8015 a700 f8f3 8901 11fe 7381
00000050: c616 0e02 eecf 2201 249c e281 1b8a 2e00
00000060: 4498 9d81 9477 3001 0ef0 ef03 00aa ea00
00000070: e243 5081 e64a 1082 6a84 ee01 1a6b 1602
00000080: 22b5 2904 407a 8800 402c 0100 4dde 0c82
00000090: 2215 1882 9cbb 2800 6870 c181 9861 7d01
000000a0: aa37 8881 956c 2502 b8ea ba01 87f0 2aad
000000b0: 2540 8201 c72b 24a9 1c62 d880 8f26 2382
000000c0: 981a 8481 2ca1 4300 00ff 8580 2056 eb81
000000d0: 060a 1a01 2687 8181 143b cd01 a5d0 3880
000000e0: 8698 e281 5072 2081 7d69 a781 06ea 1c01
000000f0: e671 1102 2a0a 8601 7447 0181 5924 0202
00000100: 104a 5601 2526 5581 6d0b 0c82 ab07 0982
00000110: 6a1b f180 1828 9a80 92a2 fb00 ce4a e200
00000120: b5cc 0c02 a8dd 2600 237e da9c e6c3 cf00
00000130: d7d5 6b81 c1c5 68a3 b088 2400 bc22 0a01
00000140: 023c 1082 68a2 9601 42b1 e101 e0ba e000
00000150: 9ac7 4181 0443 1e82 a709 9101 64b7 2701
00000160: 83bd db01 4bff 8e80 2b4f 1182 b02c 0402
00000170: 595c d801 307f a280 60f4 0482 74ff 8081
00000180: f28e 9281 2228 ab01 5eaf 9701 5a0e 9881
00000190: 6618 e901 0496 fb01 8680 0b82 e46c 1b02
000001a0: fbfb 9200 98da d501 e624 1f82 4a71 1981
000001b0: d46c c400 0907 0382 601f 6b00 14bb 7d81
000001c0: 5e29 77ab 3e55 2782 08ca 3702 f326 a401
000001d0: bc82 8101 1fde 3182 3b67 af81 e49f 7181
000001e0: 9a85 0e02 8af2 9901 a0da 6580 b43b b901
000001f0: 482e 4581 16d0 3101 8b22 e287 e6e0 7e81
00000200: 6859 2e01 50cb bc80 92e4 5001 2fa5 ac01
00000210: 0c5e 6301 804e 9801 34a2 6181 0aef 3a82
00000220: 01eb 8c01 c524 1602 1bde 8a81 788d 1881
00000230: 687f 1e80 5526 0201 8c6c 3c01 d074 c200
00000240: caa4 2101 472b c701 4011 da01 083f 1182
00000250: f8e8 1202 747e 4901 8ffc 0d02 dcc7 0300
00000260: 088e 7e81 68cd ce80 7971 ff81 f511 3d82
00000270: 57f3 cd01 a7e4 d201 c299 9501 0848 3282
00000280: 3620 4e81 6910 5814 829f 1382 c292 0280
00000290: cbe0 c381 005b eb80 0a96 1f80 c44c 5a81
000002a0: f055 1e00 a2cc a701 c963 1902 9223 6838
000002b0: 98c7 0202 8d4d 48b1 dd89 cf01 5a3a fb80
000002c0: f8eb 1a81 f6e5 4e81 a8cc b301 dfe7 fc80
000002d0: c26d 0982 a80b 3e80 a610 0100 a6f8 6700
000002e0: a2c8 9601 7403 3701 1de4 a301 b242 0582
000002f0: 2041 0682 3caf ee01 58e9 9b81 c8a5 a181
00000300: 9486 0781 6094 4100 e221 3f01 8880 3802
00000310: c810 2880 2897 0801 28d5 2301 580d 6201
00000320: 58f0 a181 28ff 0c00 6e08 ea31 053c 8504
00000330: db12 1900 cd6f 28b1 d56e 1982 3b32 b381
00000340: 1fe2 8101 4442 c201 a0f3 b381 e6f8 b001
00000350: d2a7 9701 488f 4b01 b66b 2082 0d15 2582
00000360: e67a 7a81 bc33 a681 750b 6011 1d4d e581
00000370: dc44 2b81 600d 5581 54d4 2f81 3293 7d81
00000380: 1188 be01 3430 fb01 3936 a781 4090 8000
00000390: 9e24 9701 3490 0d02 3b50 b380 2ef8 c381
000003a0: a2a2 fc81 34a4 6301 e480 4a01 5536 3182
000003b0: 5a01 ae01 44a9 a201 9e62 9e81 5c34 2282
000003c0: 3e00 0882 58fa 8881 b84a 2481 d0ea 7600
000003d0: 3efc 2e82 348b 8c81 8538 e581 97d6 cc81
000003e0: 0860 ab80 6cb2 3d01 f90f 0f82 2a99 2602
000003f0: c82e 2180 dd37 9d81 306c 7d01 410e 1402

fc3.bias f4 [128]
-1.1827077e-06 -0.00033505555 0.40546525 -0.00071029837 -0.0016599972 -1.8899284e-25 0.06287212 -0.0056481124
-0.00029255127 -4.985694e-05 -8.695401e-11 0.082457565 -1.7147529e-27 -3.1657772e-18 -5.753231e-05 -0.00011760933
-0.0006215927 -1.2331601e-09 -0.09220479 -5.3773463e-05 -1.6407515e-20 -4.911654e-09 0.39345673 -1.4029906e-16
0.47850266 0.4248627 -2.3638883e-07 -0.016632479 -5.2406617e-09 -0.008168762 -3.2003663e-06 -0.01649491
-0.0042700334 -0.00053565775 -0.015254166 -0.00032687516 -0.0072121904 -1.2932813e-12 -0.0027483641 0.4784953
-2.7084143e-06 -0.0148107475 -4.0827995e-08 -5.3257893e-25 -9.0698995e-07 -5.6177014e-09 -0.1569388 -5.772749e-29
-3.5219332e-06 -0.0028276318 -4.5577004e-08 -5.4594648e-11 -0.0012860178 -2.5577929e-09 0.34667242 -0.0074693016
-7.765399e-08 0.45218006 -1.9737968e-08 -2.8890162e-07 -0.00020362197 -1.300919e-16 0.4444472 -0.0035667582
-5.138217e-05 -7.570155e-06 -0.008990389 -2.657149e-05 -0.00026731644 -9.702995e-07 -1.0057755e-10 -1.0839628e-18
-0.15466295 -3.1731843e-06 -5.3280083e-09 -0.0001066547 -7.686901e-10 -0.008405926 0.13837796 -2.6721354e-18
-0.0021187752 -0.0025686407 -2.2118647e-05 -0.005961858 -7.8153356e-10 -1.1960769e-05 -4.0262885e-22 -0.014629995
-4.4867807e-05 0.012817972 -6.806017e-09 -0.004296059 -4.3856147e-21 -0.30535597 -1.3307316e-35 -1.6773207e-23
-0.008850721 -8.496603e-09 -1.2044511e-10 -0.0026190984 -5.72028e-19 -1.3767627e-09 -0.006084559 -1.0995398e-32
-2.3588133e-31 -0.14505507 -1.6043566e-19 -6.0418085e-15 -0.012407966 -7.055976e-38 -0.0005413504 -2.1636163e-08
-9.449788e-17 0.38416225 -0.012943852 0.35026017 -1.8239106e-12 -0.00023638422 -0.0006598447 0.4302213
-1.4234511e-31 -6.977461e-07 -2.4396407e-17 -0.00756306 -0.1263431 -2.4462452e-17 -0.00593136 -0.014654282
00000000: 87bd 9eb5 65aa afb9 2499 cf3e 5133 3aba
00000010: 4394 d9ba 39f6 6996 19c3 803d cd13 b9bb
00000020: 9161 99b9 7b1d 51b8 c236 bfae 83df a83d
00000030: 52db 0793 d797 69a2 d94e 71b8 07a5 f6b8
00000040: 61f2 22ba f77b a9b0 ddd5 bcbd d18a 61b8
00000050: f0f6 9a9e 5ec3 a8b1 2973 c93e f9c0 21a5
00000060: 4dfe f43e 9b87 d93e 11d2 7db4 d640 88bc
00000070: 5911 b4b1 45d6 05bc e0c5 56b6 5520 87bc
00000080: a3eb 8bbb 626b 0cba 9cec 79bc 7160 abb9
00000090: 3d54 ecbb 5f03 b6ab e61d 34bb 56fd f43e
000000a0: 34c2 35b6 c7a8 72bc db5a 2fb3 40d3 2497
000000b0: e077 73b5 d305 c1b1 91b4 20be 485b 9290
000000c0: 5a5a 6cb6 ca4f 39bb 72c0 43b3 1c1c 70ae
000000d0: 998f a8ba 2bc5 2fb1 0c7f b13e 0bc1 f4bb
000000e0: bcc2 a6b3 2584 e73e 408c a9b2 561a 9bb4
000000f0: 5b83 55b9 5afc 15a5 958e e33e 46c0 69bb
00000100: 2f83 57b8 2303 feb6 6d4c 13bc d7e5 deb7
00000110: 9b26 8cb9 3d3b 82b5 212c ddae f5f6 9fa1
00000120: f75f 1ebe e4f2 54b6 a811 b7b1 ceab dfb8
00000130: c24b 53b0 02b9 09bc f4b2 0d3e 362b 45a2
00000140: 26db 0abb a456 28bb 6f8b b9b7 b15b c3bb
00000150: 89d3 56b0 1dab 48b7 cc5f f39b a6b2 6fbc
00000160: 7130 3cb8 7902 523c 5cda e9b1 f4c5 8cbb
00000170: 10af a59d 9e57 9cbe f681 8d85 7338 a299
00000180: 9d02 11bc 75f8 11b2 496e 04af 2ea5 2bbb
00000190: 37d5 28a1 8838 bdb0 fb60 c7bb 905d 648a
000001a0: 8218 998c 5189 14be b468 3da0 d9ad d9a7
000001b0: c84a 4bbc fa14 c081 69e9 0dba 6dda b9b2
000001c0: b4e5 d9a4 eab0 c43e 7312 54bc 4d55 b33e
000001d0: a758 00ac e8dd 77b9 6ef9 2cba f745 dc3e
000001e0: 47c6 388c bf4c 3bb5 6304 e1a3 8cd3 f7bb
000001f0: 1660 01be 55a0 e1a3 db5b c2bb 8318 70bc

fc4.weight f4 [1, 128]
3.9457205e-05 -0.00034911616 0.6617041 0.00027426233 2.393379e-05 -9.372667e-10 -0.25361514 0.00016131846
-0.00014437037 -5.462092e-08 -1.6440656e-06 -0.33665267 -5.630833e-38 -9.2431535e-10 -0.00042158185 0.0011785956
-0.002011124 8.266261e-09 -0.36900213 -0.0003364721 -6.0203405e-13 -1.5438091e-07 0.6682655 -1.2967022e-09
0.58103675 0.66300106 2.8000227e-06 0.0040784823 -3.729032e-07 0.0024690153 -7.115537e-05 0.0009429709
0.005427009 -0.0005940394 -0.013143326 -0.002077901 -0.0020319 -5.3930005e-08 0.002106592 0.5339475
0.0004371906 -2.2204933e-05 3.5606688e-06 -1.1635661e-07 1.5115045e-07 2.307014e-05 -1.0122912 -6.4889385e-14
-4.521556e-06 -0.0002672472 -8.240658e-05 1.33246e-06 0.0002555569 -0.00022137455 0.8205487 0.0010076634
-9.732549e-08 0.5698117 -1.4233373e-17 -0.00017251098 -0.0042154663 -2.052949e-08 0.44595107 -0.0013002179
-0.00069121073 -0.0023134288 -0.00034694318 -0.00039277776 -0.0042155646 5.7542926e-05 -2.0951498e-08 -7.247479e-13
0.36661583 -1.2374637e-05 7.560098e-06 -0.000520283 -2.526513e-07 -0.0007474232 -0.37551224 -1.5414744e-09
1.8227342e-05 0.0006423027 2.2241386e-06 -0.0010337215 -5.957697e-11 -0.000105074665 1.3529927e-12 0.0009338739
-0.00029375817 -0.32182896 -1.1021272e-09 -0.0029546137 1.5932656e-12 0.5849229 1.25071405e-20 1.4764647e-35
-0.0065227603 -9.180898e-06 -4.76844e-07 0.00074404245 -8.724448e-09 1.5606067e-11 -0.0006406062 6.652254e-19
-5.421265e-12 -0.40655676 -3.7490633e-09 7.54102e-09 -0.002685019 2.3080915e-38 -0.0036923112 -1.2340639e-06
-3.375129e-13 0.7451703 -0.011875406 0.83924884 -2.7191612e-07 -0.0010592972 -0.00025947718 0.6319411
-4.9096893e-15 -0.00021511335 1.1770837e-10 0.0058693727 -0.4686091 1.1326993e-19 0.0019016038 0.00038410025
00000000: da7e 2538 9409 b7b9 7165 293f deca 8f39
00000010: 6cc5 c837 24d1 80b0 d8d9 81be 9827 2939
00000020: 2062 17b9 5698 6ab3 aaa9 dcb5 bd5d acbe
00000030: 2e49 9981 e912 7eb0 c207 ddb9 1b7b 9a3a
00000040: 10cd 03bb 6603 0e32 d9ed bcbe 8568 b0b9
00000050: 2075 29ab e7c3 25b4 7313 2b3f a737 b2b0
00000060: d3be 143f 70ba 293f 06e8 3b36 caa4 853b
00000070: 6d33 c8b4 34cf 213b 4039 95b8 b531 773a
00000080: 0dd5 b13b 4fb9 1bba 1b57 57bc 652d 08bb
00000090: a029 05bb aba0 67b3 c00e 0a3b c9b0 083f
000000a0: bb36 e539 bb44 bab7 d3f3 6e36 b9df f9b3
000000b0: eb4b 2234 c086 c137 c292 81bf 2f1e 92a9
000000c0: dfb7 97b6 501d 8cb9 b2d1 acb8 fad6 b235
000000d0: 44fc 8539 c720 68b9 7b0f 523f 9313 843a
000000e0: 4101 d1b3 2edf 113f 9a47 83a3 10e4 34b9
000000f0: e521 8abb d358 b0b2 b353 e43e 136c aaba
00000100: 5e32 35ba e59c 17bb ede5 b5b9 bded cdb9
00000110: b822 8abb 3f5a 7138 d5f8 b3b2 97ff 4bab
00000120: 12b5 bb3e a99c 4fb7 bfac fd36 9a63 08ba
00000130: 21a4 87b4 b9ee 43ba 2443 c0be cfdb d3b0
00000140: ebe6 9837 3460 283a 6942 1536 f07d 87ba
00000150: da02 83ae 885b dcb8 b36a be2b 37cf 743a
00000160: 8e03 9ab9 c4c6 a4be a779 97b0 31a2 41bb
00000170: 713b e02b 82bd 153f d240 6c1e 3101 9d05
00000180: e1bc d5bb a807 1ab7 7800 00b5 d80b 433a
00000190: 87e2 15b2 bd45 892d 5bee 27ba 0357 4421
000001a0: 6abe beac 3528 d0be 1cd1 80b1 c28d 0132
000001b0: 25f7 2fbb 3354 fb00 b4fa 71bb 1da2 a5b5
000001c0: bc00 beaa 7bc3 3e3f 1091 42bc 03d9 563f
000001d0: defb 91b4 1ed8 8aba 700a 88b9 e4c6 213f
000001e0: e4e3 b0a7 0d90 61b9 f66b 012f de53 c03b
000001f0: 88ed efbe bcb9 0520 3c3f f93a 1061 c939
