checkpoint_actor.pth (torch, 111127 bytes, 6 tensors)

fc1.weight f4 [200, 33]
0	0x3e284f28	0.16436446
1	0x3f64b720	0.89341927
2	0x3f21c656	0.6319326
3	0xbd27294c	-0.04081087
4	0x3e169418	0.14704931
5	0xbe5298d0	-0.20566106
6	0x3ecf6430	0.40506124
7	0x3e9599cc	0.292189
8	0x3e4b5c19	0.19859351
9	0x3eeac64f	0.45854422
10	0xbc39d3be	-0.011341987
11	0x3eb0c528	0.34525418
12	0xbe90f262	-0.28309923
13	0x3de0b24d	0.10971508
14	0x3ec76964	0.38947594
15	0x3dcff96e	0.10154997
16	0xbf44b068	-0.76831675
17	0xbd3b3b16	-0.045710646
18	0xbf790578	-0.9727397
19	0x3ec93054	0.39294684
20	0xbd627985	-0.05529167
21	0x3d992917	0.074785404
22	0xbe0c8786	-0.13723573
23	0xbce6d00f	-0.028175382
24	0x3de7c18f	0.11316215
25	0xbdb5a77f	-0.08869838
26	0x3e82e85f	0.2556791
27	0x3df86566	0.12128715
28	0xbf051e22	-0.51999104
29	0xbcd8067c	-0.02637028
30	0xbd3d5377	-0.046222176
31	0xbd51fa70	-0.051264226
32	0x3f0f0257	0.55862945
33	0xbe219995	-0.15781243
34	0x3e40e7f0	0.18838477
35	0xbf0bfdd4	-0.54684186
36	0xbecae41d	-0.39627162
37	0xbf06238d	-0.52397996
38	0x3e0feaa3	0.1405435
39	0xbec234dc	-0.37930954
40	0xbeff539c	-0.49868476
41	0x3e9c71b7	0.30555508
42	0xbdc89d7f	-0.09795665
43	0x3db75350	0.089514375
44	0xbe67e50e	-0.22645971
45	0xbd1deafb	-0.038554173
46	0xbe2b6a5b	-0.1673979
47	0x3f04e92a	0.5191828
48	0xbf359e6d	-0.70944864
49	0x3e313521	0.17305423
50	0x3da77713	0.081770085
51	0x3e1dc502	0.15407184
52	0xbebc10df	-0.36731622
53	0xbe31818f	-0.17334579
54	0x3e0ce436	0.1375893
55	0xbdf09b0d	-0.117483236
56	0xbe6019c0	-0.21884823
57	0x3c1b9835	0.009496738
58	0xbec0a5f4	-0.37626612
59	0xbd94ac48	-0.072594225
60	0x3e9c8e80	0.3057747
61	0x3f07bdc1	0.53023916
62	0xbd90ad3a	-0.0706429
63	0xbec39ed2	-0.38207108
64	0xbbac1b40	-0.005252272
65	0x3fb960e6	1.4482696
66	0x3e9e7f6b	0.30956587
67	0xbf0699ae	-0.52578247
68	0x3f0a8472	0.54108346
69	0xbd367721	-0.044547204
70	0x3e55f9d5	0.20896085
71	0xbe1e935d	-0.15485902
72	0x3e6bf88a	0.23044029
73	0x3d7bb6a8	0.06145349
74	0xbf0168f2	-0.5055076
75	0xbe9eb881	-0.3100014
76	0xbe84f343	-0.25966844
77	0xbe8b0565	-0.27152553
78	0xbe5c3322	-0.2150388
79	0xbf1a2d1d	-0.6022509
80	0x3f439a49	0.76407295
81	0xbf03cd74	-0.5148537
82	0xbe4d71c0	-0.20062923
83	0x3e2aa33e	0.16663834
84	0x3babdc68	0.0052447803
85	0x39401b33	0.0001832068
86	0x3e3a0344	0.18165308
87	0x3ee9a51d	0.45633784
88	0xbcccac83	-0.024984604
89	0xbe1549af	-0.1457889
90	0xbe6d8ad3	-0.23197488
91	0xbd22d80a	-0.039756812
92	0x3ecef687	0.4042246
93	0xbe760d20	-0.24028444
94	0x3e214f50	0.15752912
95	0x3bcbec80	0.0062232614
96	0x3df4ccef	0.119531505
97	0xbcedcfea	-0.029029805
98	0xbf9074b6	-1.1285617
99	0x3e92ef21	0.28698066
100	0xbe01a5fa	-0.12660971
101	0x3e3ff902	0.18747333
102	0xbe48fee0	-0.19628477
103	0x3e78f6de	0.24312922
104	0xbf3ba2dd	-0.73295385
105	0xbf5d19fe	-0.86367786
106	0x3e64e5d6	0.223533
107	0xbc92714f	-0.017876295
108	0x3eefb8cf	0.46820685
109	0x3ec03caa	0.37546283
110	0xbea88db8	-0.32920623
111	0x3eba9b0d	0.3644642
112	0x3f1406d2	0.57822907
113	0x3e490ba0	0.19633341
114	0xbe78da9d	-0.24302144
115	0x3dc23603	0.09482958
116	0x3f0d746e	0.5525578
117	0x3f115186	0.5676502
118	0xbcab509b	-0.02091246
119	0x3e174686	0.14772996
120	0x3e2cefce	0.16888353
121	0x3d9063d8	0.07050294
122	0x3e683e50	0.2268002
123	0x3e5c9c47	0.2154399
124	0xbdc3ebfc	-0.09566495
125	0xbf26ff61	-0.6523343
126	0xbc7e4312	-0.0155189205
127	0xbd510631	-0.051031295
128	0xbd512550	-0.051060975
129	0x3d1cb655	0.038259823
130	0x3c1c6cf8	0.009547465
131	0xbfb8768f	-1.4411181
132	0x3e706e33	0.23479538
133	0x3f34ca27	0.7062096
134	0x3d9e0514	0.07715812
135	0xbeb2d023	-0.3492442
136	0x3ebcf293	0.3690382
137	0xbf21c454	-0.631902
138	0x3e050e7f	0.12993811
139	0xbe9de369	-0.30837563
140	0x3ddb61e4	0.107120305
141	0x3ea7e31b	0.32790455
142	0xbca424d4	-0.020037092
143	0xbe403f2c	-0.18774098
144	0xbdef991e	-0.11699127
145	0x3f4bb923	0.7957937
146	0x3e0f4535	0.13991244
147	0xbc9ef9ea	-0.019406278
148	0xbdb8828e	-0.09009276
149	0xbea307a0	-0.31841755
150	0x3e72620e	0.23670217
151	0xbf3d19e2	-0.7386762
152	0x3e98b650	0.29826593
153	0xbd9f65ef	-0.07783114
154	0x3e33ba70	0.17551589
155	0x3eedc4f4	0.46439326
156	0xbddff36b	-0.109351
157	0x3e18650c	0.14882296
158	0xbc217ce9	-0.009856441
159	0x3ec5a94c	0.38605726
160	0x3ea211c8	0.3165419
161	0x3d2aa6c4	0.041662946
162	0xbeac0702	-0.33599097
163	0x3add8440	0.0016900375
164	0xbfe7ba56	-1.810374
165	0x3f192742	0.5982553
166	0x3efd9af2	0.49532276
167	0xbcf5a691	-0.029986652
168	0xbf2d054e	-0.6758622
169	0xbf0cf9b6	-0.5506853
170	0xbe6ab86a	-0.22921911
171	0x3ed08bbd	0.40731612
172	0x3ed542b5	0.41652456
173	0xbd6883f2	-0.056766458
174	0x3edd5050	0.43225336
175	0x3eabbe4d	0.33543625
176	0x3cd7f937	0.026363952
177	0xbe333e48	-0.17504227
178	0xbec25c0f	-0.3796086
179	0x3f07baf9	0.5301967
180	0xbf1d7075	-0.6149972
181	0x3e021d16	0.12706408
182	0xbeaa842f	-0.33303973
183	0x3e7afa00	0.2450943
184	0xbd4ccc28	-0.049999386
185	0x3db86620	0.09003854
186	0x3dfa35bb	0.122172795
187	0x3eb42d16	0.35190648
188	0x3b81ca4c	0.0039608832
189	0x3ec185e9	0.37797478
190	0xbd0cdd8e	-0.03439098
191	0x3f23c524	0.6397269
192	0x3e36aec4	0.17840105
193	0xbd6708b1	-0.056404773
194	0xbd28393c	-0.041070208
195	0xbe61140e	-0.21980307
196	0x3d2bbf62	0.041930564
197	0xbe8bbbb8	-0.27291656
198	0x3fb38293	1.4024223
199	0x3efcc8b6	0.4937188
200	0xbf2cf14b	-0.67555684
201	0xbe12dccc	-0.1434204
202	0x3e24a3ef	0.1607816
203	0x3f4758bb	0.77869767
204	0xbf3e9a00	-0.74453735
205	0xbdcf9b03	-0.10136988
206	0xbe3e9eca	-0.1861526
207	0xbe8e6bb4	-0.27816546
208	0xbe8f0341	-0.2793217
209	0xbd0a28f4	-0.033730462
210	0xbdcaa5a6	-0.09894876
211	0x3ed8ad59	0.42319754
212	0xbe45471c	-0.19265407
213	0x3e1a0e67	0.15044557
214	0x3dfcacb1	0.12337626
215	0xbdb1d5c8	-0.08683354
216	0x3e440aae	0.19144699
217	0x3e56e124	0.20984322
218	0xbe00f038	-0.12591636
219	0xbd8f6726	-0.07002096
220	0x3eac1150	0.33606958
221	0x3e264854	0.16238528
222	0xbe05c059	-0.13061656
223	0x3cef393b	0.029202094
224	0xbf0542a4	-0.5205481
225	0x3e68a1a4	0.22717911
226	0x3d92c716	0.07166879
227	0xbd87a6f0	-0.06623638
228	0xbe5c3246	-0.21503553
229	0x3d2e3954	0.04253514
230	0x3ef37609	0.4755099
231	0x3eeea736	0.46611947
232	0x3ea27dc8	0.31736588
233	0xbe2c7e8a	-0.16845146
234	0xbeccf835	-0.40033117
235	0xbd5c3810	-0.053764403
236	0x3ec1e6f0	0.37871504
237	0x3ec9fdfe	0.39451593
238	0x3a268dcb	0.0006353526
239	0x3e973eec	0.29540193
240	0xbe6a8987	-0.22904025
241	0x3e25f33e	0.16206071
242	0x3e99045d	0.2988614
243	0xbe5086d0	-0.20363927
244	0xbed12330	-0.40847158
245	0xbf4178a6	-0.7557472
246	0xbe5c9d59	-0.21544398
247	0x3e535a91	0.20640017
248	0xbe20f4f1	-0.15718438
249	0xbdeb07e1	-0.11476112
250	0x3e9ccfb9	0.3062723
251	0xbe850806	-0.25982684
252	0xbe8901a1	-0.26759055
253	0xbf15b2d3	-0.5847599
254	0xbeb722b2	-0.35768658
255	0x3e15ab5b	0.14616148

fc1.bias f4 [200]
0	0xbd55b253	-0.052172016
1	0xbeb1ae4c	-0.3470329
2	0x3d0c4637	0.03424665
3	0x3e182160	0.14856482
4	0xbee4dd4e	-0.44700092
5	0xbd8c34f5	-0.06846038
6	0xbe861134	-0.26185
7	0xbe906761	-0.28203872
8	0xbe85515f	-0.26038644
9	0xbea156e5	-0.31511608
10	0xbf0b9004	-0.54516625
11	0xbe2094b3	-0.15681724
12	0x3ec29093	0.38000926
13	0xbe9b4409	-0.30325344
14	0x3e94fc83	0.290989
15	0xbdbf4d81	-0.093409546
16	0xbd8a3755	-0.06748835
17	0xbe99df53	-0.30053195
18	0x3e122694	0.14272529
19	0xbec911c0	-0.39271355
20	0xbd8eedef	-0.06978976
21	0xbedc42d5	-0.4301974
22	0xbebc5e5d	-0.36790743
23	0xbf17893c	-0.5919378
24	0xbebfe9f3	-0.37483177
25	0xbf0cc27e	-0.5498427
26	0xbe99ea9c	-0.30061805
27	0xbedb84c7	-0.4287474
28	0x3df362f5	0.11884109
29	0xbf12e41f	-0.57379335
30	0xbe5c9a3c	-0.2154321
31	0xbec294f3	-0.38004264
32	0xbf012514	-0.504472
33	0xbe90c51b	-0.2827538
34	0xbdbd8f76	-0.092558786
35	0xbf0ba786	-0.54552495
36	0xbebfe402	-0.37478644
37	0xbe99211b	-0.2990807
38	0xbdf319b8	-0.1187014
39	0xbe1cd74c	-0.15316504
40	0xbe34efec	-0.17669648
41	0xbe825656	-0.25456494
42	0xbe425f8c	-0.1898176
43	0x3ea77507	0.32706472
44	0xbea563de	-0.32302755
45	0xbe559f3b	-0.20861523
46	0xbed8e24e	-0.42360157
47	0x3e4ce4e9	0.20009197
48	0xbe73016f	-0.23731016
49	0x3e68ee18	0.22747076
50	0xbec123cf	-0.37722632
51	0xbeec6156	-0.4616801
52	0xbe8b652e	-0.2722563
53	0xbec3e569	-0.38260964
54	0xbf351f3d	-0.7075079
55	0xbe9336bf	-0.28752705
56	0xbd92d60b	-0.07169732
57	0x3e663fbc	0.2248525
58	0xbe2008f7	-0.1562842
59	0xbe0b4901	-0.13602068
60	0xbeca9bbc	-0.3957194
61	0x3e0250cf	0.12726139
62	0xbe9137ee	-0.28362983
63	0xbe8b91c7	-0.27259657
64	0xbefbfd8d	-0.4921688
65	0xbef50c45	-0.47860923
66	0xbda49b88	-0.08037478
67	0xbf1e1638	-0.61752653
68	0xbed1fa00	-0.41011047
69	0xbe9d81d3	-0.3076311
70	0xbde8d311	-0.11368383
71	0xbef5b7fb	-0.47991928
72	0xbed2f9e3	-0.41206273
73	0xbec1f8d4	-0.37885153
74	0xbee179ba	-0.44038182
75	0xbe2c69f0	-0.16837287
76	0xbf17c71b	-0.59288186
77	0xbebbdaab	-0.36690268
78	0x3d8d1ed0	0.06890643
79	0xbed4df13	-0.41576442
80	0xbefedae2	-0.4977637
81	0xbf198ce2	-0.59980595
82	0x3ddfa3c3	0.10919907
83	0x3ce2e735	0.027698139
84	0xbede0979	-0.43366602
85	0xbe8ab8e4	-0.27094185
86	0xbd8ad1b4	-0.06778279
87	0xbed2f16c	-0.41199815
88	0xbd995dcd	-0.07488594
89	0xbcdd9e76	-0.0270531
90	0xbd3b2687	-0.04569104
91	0xbf2825f4	-0.6568291
92	0xbee86975	-0.45392957
93	0x3d99923c	0.07498595
94	0xbeb29095	-0.34875932
95	0xbd8bb051	-0.06820739
96	0xbef1deb3	-0.4724022
97	0xbe00cafa	-0.1257743
98	0xbe5bb57c	-0.2145595
99	0xbeec5437	-0.46158
100	0xbf6e3e98	-0.9306426
101	0xbe031033	-0.12799148
102	0xbe0ca117	-0.13733326
103	0xbe9802de	-0.29689687
104	0xbd6487ba	-0.0557935
105	0xbe9abc22	-0.3022166
106	0xbe3a6b60	-0.18205023
107	0xbef23b47	-0.4731085
108	0xbe082d01	-0.13298418
109	0xbe9538f5	-0.29145017
110	0xbf08a5e0	-0.53378105
111	0xbe06e119	-0.13171805
112	0xbf2ee2e3	-0.6831495
113	0xbf3a1c69	-0.726996
114	0xbe22f494	-0.15913612
115	0xbe15eb19	-0.14640464
116	0xbe14181b	-0.1446232
117	0xbf13c6e8	-0.5772538
118	0xbee0eb7e	-0.43929666
119	0xbccfbb2f	-0.02535781
120	0xbeb4dd94	-0.353253
121	0xbed45bcb	-0.41476282
122	0xbd73fede	-0.059569232
123	0xbda10514	-0.07862297
124	0xbec1dc88	-0.37863564
125	0xbe6996d8	-0.22811449
126	0x3d602b2d	0.054728676
127	0xbdba76ec	-0.09104714
128	0xbe66ae7b	-0.22527497
129	0xbe7b02ed	-0.24512835
130	0x3db1c94a	0.08680971
131	0xbe9ebbeb	-0.31002745
132	0xbe004ff0	-0.12530494
133	0x3e250ac8	0.16117394
134	0xbefa5943	-0.48896226
135	0xbe5c4200	-0.21509552
136	0xbe88c905	-0.26715866
137	0xbdcca281	-0.09991933
138	0x3d529ac7	0.05141714
139	0xbe873589	-0.26408032
140	0x3d218443	0.039432775
141	0xbed4e13d	-0.41578093
142	0xbee1efda	-0.44128305
143	0xbeb84c99	-0.3599594
144	0xbeeafe14	-0.4589697
145	0xbeb93e20	-0.3618021
146	0xbeebe7fa	-0.46075422
147	0xbe76b87e	-0.24093816
148	0x3e66d850	0.22543454
149	0xbef5d50b	-0.480141
150	0xbd091d21	-0.033475045
151	0xbed10502	-0.40824133
152	0xbef6f24b	-0.4823173
153	0xbdb60490	-0.08887589
154	0x3d935f59	0.071959205
155	0xbf07d303	-0.53056353
156	0xbdcee42c	-0.10102114
157	0xbd8ed367	-0.069739155
158	0xbef30add	-0.47469226
159	0xbe9cc7f3	-0.306213
160	0xbecb6719	-0.39727095
161	0xbe3181ad	-0.17334624
162	0x3e87e7fa	0.26544172
163	0xbef5f736	-0.4804017
164	0x3c8b2c7b	0.016988983
165	0xbb2141a8	-0.0024605785
166	0xbea9fdef	-0.33201548
167	0xbef208ea	-0.47272426
168	0xbc056a98	-0.00814309
169	0xbe9664eb	-0.2937387
170	0xbf13da16	-0.5775465
171	0xbde1e733	-0.11030426
172	0x3dbb09e4	0.09132746
173	0xbeedaaff	-0.46419522
174	0xbd34315d	-0.04399239
175	0x3bcfcf0e	0.0063418215
176	0xbddf0404	-0.10889438
177	0xbdaf52ad	-0.08560691
178	0x3e750675	0.23928244
179	0xbf18b4bb	-0.5965077
180	0xbeb0bc73	-0.34518775
181	0xbed5ee1b	-0.41783223
182	0xbe966cff	-0.29380032
183	0xbea2198f	-0.31660125
184	0xbea7e0a1	-0.32788566
185	0x3d4a4661	0.049383525
186	0xbebf1afb	-0.37325272
187	0x3cb74f4f	0.022376684
188	0xbe294527	-0.16530286
189	0xbe85ae34	-0.2610947
190	0xbef9c38e	-0.4878201
191	0xbe777826	-0.24166927
192	0xbeceff16	-0.4042899
193	0xbf154b79	-0.5831829
194	0x3e5b698f	0.21426986
195	0x3e726c2e	0.2367408
196	0x3d476f43	0.04869009
197	0xbeddfbd4	-0.43356192
198	0xbf0391a9	-0.51394135
199	0x3d932486	0.07184701

fc2.weight f4 [100, 200]
0	0x3f1d1c2b	0.61371106
1	0x3d964fc7	0.07339435
2	0x3e487a23	0.19577841
3	0xbf18157d	-0.5940779
4	0x3e014f72	0.12627962
5	0x3ea2085a	0.31646997
6	0xbf6db931	-0.92860705
7	0x3f1687b1	0.588008
8	0xbf254650	-0.64560413
9	0x3ef231ba	0.47303563
10	0x3f550827	0.83215564
11	0x3e70617d	0.23474689
12	0xbdabaef3	-0.08382978
13	0x3e082012	0.13293484
14	0x3ebcbaa4	0.36861145
15	0x3e2e61b4	0.17029458
16	0x3db20b7f	0.08693599
17	0xbf11262b	-0.56698865
18	0x3c9d98e3	0.019237941
19	0xbe8790fc	-0.26477802
20	0x3ddbf470	0.10739982
21	0x3e5454d6	0.20735487
22	0x3f60bf0c	0.87791514
23	0xbe25382e	-0.16134712
24	0xbe972583	-0.29520807
25	0xbdb52d1f	-0.08846497
26	0x3f1e1c58	0.61762
27	0xbf078f54	-0.52953076
28	0x3e270270	0.16309524
29	0x3f14b134	0.5808289
30	0x3e3e839c	0.18604892
31	0x3e979f44	0.29613698
32	0x3e9e6710	0.30938005
33	0xbdc002aa	-0.09375508
34	0x3ed4e8f4	0.4158398
35	0xbe83036c	-0.25588548
36	0x3f27f585	0.6560901
37	0xbf373d8d	-0.71578294
38	0x3d7e0412	0.0620156
39	0x3ebe0c42	0.37118727
40	0x3f8885eb	1.0665869
41	0x3dcadb41	0.099051006
42	0x3e1ce381	0.15321161
43	0xbecbc98a	-0.398022
44	0x3e664835	0.22488482
45	0xbf0243b1	-0.5088454
46	0x3ee9adf1	0.4564052
47	0xbf64d93e	-0.89393985
48	0xbeade274	-0.33961833
49	0x3dfe2e6c	0.12411198
50	0xbdd47427	-0.10373717
51	0x3d5bfb7c	0.05370663
52	0x3c3e330b	0.011608849
53	0x3e8110bf	0.2520809
54	0x3f915b5f	1.1356009
55	0x3f08bdc7	0.5341458
56	0x3d3527ec	0.044227526
57	0xbf08d9af	-0.5345716
58	0xbe7a2d82	-0.24431422
59	0x3f27a6ca	0.65488875
60	0x3f222a43	0.63345736
61	0xbf000532	-0.5000793
62	0xbe4695e9	-0.19393124
63	0x3f06ebfc	0.52703834
64	0x3f25a96d	0.6471165
65	0xbf01dd49	-0.5072828
66	0xbc26bbac	-0.01017658
67	0xbdff269c	-0.12458536
68	0x3e61c76a	0.22048727
69	0x3c8c7c25	0.01714904
70	0x3dc93239	0.09824032
71	0x3ea6e69a	0.3259781
72	0x3f0cf61b	0.5506303
73	0x3e96befc	0.29442585
74	0x3dfb7e78	0.122799814
75	0x3f07911a	0.5295578
76	0xbea0c8a7	-0.31403086
77	0x3ecd9c1e	0.4015817
78	0x3e8fb98b	0.28071246
79	0x3e34a651	0.1764157
80	0x3e9850d7	0.29749176
81	0x3e9c1bdc	0.30490005
82	0x3d6fa4c1	0.05850673
83	0x3e688ea3	0.22710662
84	0x3ec63ad9	0.38716772
85	0xbe58712d	-0.21136923
86	0xbf0bb4f5	-0.54572994
87	0x3e285bbb	0.16441242
88	0xbedf4103	-0.43604288
89	0x3e377485	0.17915542
90	0x3e7a9799	0.24471892
91	0xbd3ece4a	-0.04658345
92	0xbe1ec96b	-0.15506522
93	0xbd53cf75	-0.05171152
94	0x3eede612	0.46464592
95	0xbcd5457c	-0.02603411
96	0x3ee7904d	0.4522728
97	0xbd0433d7	-0.032276
98	0xbdb76410	-0.08954632
99	0xbe2fc5bd	-0.17165275
100	0xbe983b37	-0.29732677
101	0xbed44759	-0.41460684
102	0xbee45ad3	-0.44600543
103	0x3e2e5086	0.17022905
104	0xbe5b2c42	-0.21403602
105	0x3f177928	0.59169245
106	0x3c081302	0.008305313
107	0xbe23eca7	-0.16008244
108	0x3f15ae20	0.5846882
109	0x3efd8a99	0.49519804
110	0x3ef1ac39	0.47201708
111	0xbef97714	-0.48723662
112	0x3e776048	0.24157822
113	0x3e991a66	0.29902953
114	0x3d35e914	0.044411734
115	0x3ed76320	0.42067814
116	0x3ed1c1e8	0.4096825
117	0xbbb406a2	-0.0054939548
118	0xbbdf8eb5	-0.006822432
119	0x3d131d3c	0.035916552
120	0x3f4353d6	0.762998
121	0x3eaea4c7	0.3411009
122	0xbd20cb0e	-0.039256148
123	0xbe877f77	-0.26464435
124	0x3e66a7ae	0.22524902
125	0xbe1b2ccd	-0.15153809
126	0xbe546037	-0.20739828
127	0x3ea45e76	0.32103318
128	0x3e5f4e3b	0.21807186
129	0xbcff6ab7	-0.031178815
130	0x3e77354b	0.24141423
131	0xbb9159c8	-0.0044357516
132	0x3d94b248	0.07260567
133	0x3db52440	0.08844805
134	0x3f30f0cd	0.6911743
135	0x3d9baa44	0.07600835
136	0x3e09499f	0.1340699
137	0xbebf812d	-0.3740324
138	0xbed8977c	-0.42303073
139	0x3e8c6f40	0.27428627
140	0xbe1a60a7	-0.15075932
141	0x3f526a4b	0.8219344
142	0x3f815e03	1.0106815
143	0xbedd4c83	-0.43222436
144	0xbebee5c0	-0.3728466
145	0x3f5fa2cc	0.87357783
146	0x3e01e32b	0.12684314
147	0xbece8101	-0.40332797
148	0x3e7a37f5	0.24435408
149	0x3e86a271	0.26295808
150	0x3f00a7e7	0.502562
151	0x3f496ad6	0.78678644
152	0xbe41af41	-0.1891451
153	0xbdfa9cbd	-0.12236927
154	0xbe8d53de	-0.27603048
155	0xbf90aa96	-1.1302059
156	0x3f09ca9b	0.53824776
157	0xbe7eebfa	-0.24894705
158	0x3ea22156	0.31666058
159	0x3e6387dd	0.22219796
160	0xbcbb0fd7	-0.022834701
161	0xbe262dbf	-0.16228388
162	0xbef5ed35	-0.48032537
163	0xbee44d70	-0.4459033
164	0xbd938e92	-0.072049275
165	0xbeacd282	-0.33754355
166	0xbe9005cd	-0.28129426
167	0x3e8a996d	0.2707018
168	0x3d8b3d09	0.06798751
169	0x3e233cb1	0.1594112
170	0x3e05f960	0.1308341
171	0x3e8eb4b7	0.2787225
172	0xbee22044	-0.44165242
173	0xbcc8efe3	-0.02452845
174	0xbf1799d5	-0.59219104
175	0x3da6b37c	0.08139703
176	0x3e8921a1	0.2678347
177	0x3c1081fa	0.008820051
178	0x3e862f2a	0.26207858
179	0xbf1ea7aa	-0.61974585
180	0x3efa77f9	0.48919657
181	0xbec0ef16	-0.37682408
182	0xbed0641a	-0.4070137
183	0xbd2bacb9	-0.041912768
184	0x3ee40890	0.44537783
185	0xbe52a6d5	-0.20571454
186	0x3ee44148	0.44581056
187	0x3f9d4aa6	1.2288406
188	0x3e384398	0.17994535
189	0xbcb11199	-0.021614837
190	0x3f069cb9	0.5258289
191	0xbe209405	-0.15681465
192	0xbdb78ac9	-0.08962018
193	0x3e87c847	0.26519987
194	0x3ed3747d	0.4129981
195	0xbf2ee798	-0.68322134
196	0xbe9017ab	-0.28143057
197	0x3e1e2ba0	0.15446329
198	0x3ea9df20	0.33178043
199	0xbedc1ba8	-0.4298985
200	0xbeec05ef	-0.46098277
201	0xbe93a994	-0.28840315
202	0xbe2b8f8b	-0.16753976
203	0x3ed0808b	0.4072307
204	0xbeea3e0d	-0.45750466
205	0x3f053e5d	0.52048284
206	0xbe81dab5	-0.25362173
207	0xbecfc4b8	-0.40579772
208	0x3f2b9820	0.67029
209	0x3e87ef63	0.26549825
210	0xbc3504a3	-0.011048469
211	0x3f20f247	0.62869686
212	0x3dd1ed22	0.102503076
213	0x3d9b2c5d	0.07576821
214	0xbf2cac40	-0.6745033
215	0x3e397267	0.18110047
216	0xbc7eb347	-0.015545673
217	0x3eb3b501	0.35099033
218	0xbd4fd886	-0.050743602
219	0x3e336539	0.17519082
220	0x3f199646	0.59994924
221	0xbe97dcae	-0.29660553
222	0xbea8e9b1	-0.32990792
223	0x3d848521	0.06470705
224	0x3f1b0490	0.60553837
225	0xbe47d369	-0.1951424
226	0x3e38e999	0.1805786
227	0x3e459658	0.19295633
228	0xbf5ded7a	-0.86690485
229	0x3e9f4eba	0.3111475
230	0xbf635100	-0.8879547
231	0x3d6d49c1	0.057931665
232	0x3d2b1f63	0.04177798
233	0x3f21592b	0.63026685
234	0xbe9516de	-0.2911901
235	0xbea7936f	-0.3272967
236	0x3f0bd781	0.5462571
237	0xbee93984	-0.45551693
238	0x3e26f9a6	0.16306171
239	0x3ccb2fa6	0.024802994
240	0xbedaec2d	-0.42758313
241	0x3e8e1a1b	0.27754292
242	0x3d897810	0.06712353
243	0x3e5a00e8	0.21289408
244	0xbdab56c6	-0.0836616
245	0xbe2c185f	-0.16806172
246	0x3de2c586	0.11072831
247	0xbe9527c5	-0.29131904
248	0x3eb8af73	0.36071357
249	0xbf1ea428	-0.6196923
250	0xbe9b8f02	-0.30382544
251	0x3f0efec1	0.55857474
252	0xbd82e7fd	-0.063919045
253	0x3e934097	0.28760216
254	0x3f2fe487	0.6870808
255	0x3d85006e	0.064942226

fc2.bias f4 [100]
0	0xbe954820	-0.2915659
1	0xbec61adb	-0.38692364
2	0xbe6898b6	-0.22714505
3	0xbef004c1	-0.46878627
4	0xbe3ac0d4	-0.1823762
5	0xbf4ec3c2	-0.8076745
6	0xbe7b0e04	-0.24517065
7	0x3e322f84	0.17400938
8	0xbf0a7ad7	-0.5409369
9	0xbd47aa86	-0.04874661
10	0xbd38a04f	-0.045074757
11	0x3d4b002e	0.04956072
12	0x3cf79743	0.030223494
13	0xbe465bf3	-0.19371013
14	0xbf103c61	-0.5634213
15	0xbe1ab711	-0.15108897
16	0x3de41335	0.11136476
17	0xbe1fe762	-0.1561561
18	0xbdd8b82d	-0.10582004
19	0xbc1e8017	-0.009674094
20	0xbd4c1765	-0.049827
21	0x3e512839	0.204255
22	0x3ece2ec9	0.4027007
23	0x3cef56e6	0.029216241
24	0xbeb70935	-0.35749212
25	0xbed31b24	-0.41231644
26	0xbebb907a	-0.36633664
27	0xbed8c3ed	-0.4233698
28	0x3e053ff6	0.1301268
29	0xbf10488c	-0.563607
30	0xbf33c544	-0.7022288
31	0x3d59e0d8	0.053192943
32	0x3e160c85	0.14653213
33	0xbec52423	-0.38504133
34	0xbc24031a	-0.010010505
35	0xbefb8d4c	-0.49131238
36	0xbe8cd5ff	-0.27507016
37	0xbe63d494	-0.22249061
38	0xbeba39ad	-0.36372128
39	0xbe3355f6	-0.1751326
40	0xbf13393b	-0.575092
41	0xbe5c0d02	-0.21489337
42	0xbed08b33	-0.407312
43	0x3e0011de	0.12506816
44	0xbf1d0b57	-0.6134543
45	0xbc05ee90	-0.0081745535
46	0xbed6053c	-0.4180087
47	0x3c1e66ce	0.009668065
48	0x3ecb2f8a	0.39684707
49	0xbdc7d406	-0.09757237
50	0xbe9a12ea	-0.30092555
51	0xbf45c8bf	-0.7725944
52	0xbe9d5a48	-0.30732942
53	0xbd73b8a3	-0.059502255
54	0xbe1b727f	-0.15180396
55	0xbf10a429	-0.5650049
56	0x3e2b4879	0.16726865
57	0xbd25035c	-0.040286407
58	0x3ea26c44	0.31723225
59	0xbe9c8f33	-0.30578002
60	0xbe134e4a	-0.14385334
61	0x3e09875e	0.13430545
62	0x3d6fbf7f	0.058532234
63	0xbeec45cc	-0.46147
64	0x3ed4bcd9	0.4155033
65	0x3f06b6b7	0.5262255
66	0xbf0c5f96	-0.5483335
67	0xbf279c7d	-0.6547316
68	0x3cadf514	0.021235026
69	0xbc3df941	-0.011595071
70	0xbee057d6	-0.43817014
71	0xbdd19bf0	-0.10234821
72	0x3e3dadd3	0.1852334
73	0x3cf8fb81	0.030393364
74	0xbf1c33bc	-0.6101644
75	0xbdf83267	-0.121189885
76	0xbecac004	-0.3959962
77	0xbe6e2ef2	-0.23260096
78	0xbeda7e9f	-0.4267473
79	0xbef60922	-0.48053843
80	0xbeae9c17	-0.34103462
81	0x3c8b628e	0.017014768
82	0x3c6ea047	0.01456458
83	0xbe21131e	-0.15729949
84	0xbdbf8a03	-0.093524955
85	0x3c7e2f19	0.015514159
86	0xbd99df54	-0.075132996
87	0xbd9f508f	-0.07779037
88	0xbf027d60	-0.5097256
89	0xbeb820ea	-0.3596261
90	0x3ecd530e	0.40102428
91	0x3eb34283	0.35011682
92	0x3e4fc54c	0.20290107
93	0xbde627a8	-0.112380326
94	0xbe597f06	-0.21239862
95	0xbe9c4823	-0.30523786
96	0xbd9f7208	-0.077854216
97	0xbf339835	-0.70154124
98	0xbec1bc29	-0.37838867
99	0xbe069226	-0.13141689

fc3.weight f4 [4, 100]
0	0xbf41b737	-0.7567019
1	0x3e1e88f3	0.1548193
2	0x3ec3a47f	0.38211438
3	0x3f8cb977	1.0994099
4	0x3fc5f2c7	1.5464715
5	0xbf0f8dc8	-0.56075716
6	0x3f812b70	1.0091381
7	0x3eea728c	0.45790517
8	0x3e2cf7bc	0.16891378
9	0x3ede80fa	0.43457776
10	0x3f46e78e	0.77697074
11	0x3f0f5121	0.5598317
12	0x3f6872bf	0.9080009
13	0xbf68203d	-0.9067419
14	0xbe0f5c2f	-0.14000009
15	0xbde7adb2	-0.113124266
16	0x3e35495d	0.17703767
17	0xbf3c0ed4	-0.73460126
18	0x3f9942ce	1.1973512
19	0x3d89b469	0.06723864
20	0xbd2da964	-0.04239787
21	0x3ef87a19	0.48530653
22	0x3d9bad8b	0.0760146
23	0x3e7884ac	0.2426936
24	0xbe9e57d9	-0.30926397
25	0x3eaec070	0.34131193
26	0x3e7f3478	0.24922359
27	0xbf0eb96c	-0.5575168
28	0xbeab0efb	-0.33409867
29	0xbed250f6	-0.41077393
30	0xbf6596a4	-0.89682984
31	0xbeff82ed	-0.49904576
32	0xbcaf0d3c	-0.021368615
33	0xbdd31a84	-0.10307792
34	0x3ee25cf1	0.44211534
35	0x3e2055a5	0.15657671
36	0xbf2633c2	-0.64922726
37	0x3d5ed93f	0.0544064
38	0x3ee29501	0.44254306
39	0xbedc8f01	-0.43077853
40	0xbd8408fc	-0.06447026
41	0x3f526784	0.821892
42	0x3ebe0397	0.37112114
43	0x3cab3e83	0.020903831
44	0x3ed2f674	0.41203654
45	0xbe710e56	-0.23540625
46	0xbeb37a6c	-0.35054338
47	0xbedc18d1	-0.42987683
48	0xbf10e3c7	-0.5659756
49	0x3e85740f	0.26065108
50	0xbf8cb3e3	-1.0992397
51	0xbf2aabb4	-0.6666825
52	0x3ee50f95	0.4473845
53	0x3e851d76	0.2599904
54	0x3f90f9ac	1.1326194
55	0x3f0cb53d	0.5496405
56	0x3e812190	0.2522092
57	0x3f43bac1	0.7645684
58	0x3d13b4c9	0.036061082
59	0xbf7e3bfb	-0.9931027
60	0xbc11fc0c	-0.00891019
61	0x3e3bd879	0.18344297
62	0x3c787774	0.015165199
63	0xbe8a8070	-0.27051115
64	0xbf2bb69e	-0.67075527
65	0xbf9ba41f	-1.2159461
66	0x3f3ca572	0.7368995
67	0xbf7874e8	-0.97053385
68	0xbfb5babd	-1.4197613
69	0xbe9901ba	-0.2988413
70	0xbee0baa6	-0.438924
71	0xbeb8bc5a	-0.360812
72	0x3e93055f	0.28715035
73	0x3d4086c7	0.047003534
74	0xbf2fe938	-0.6871524
75	0x3f580deb	0.8439624
76	0xbcd9873c	-0.026553743
77	0x3f30b1c1	0.6902123
78	0x3dab35f1	0.08359898
79	0x3e4741ee	0.19458744
80	0x3e4cc5c9	0.19997324
81	0x3f4b8f5b	0.7951562
82	0xbe6942dd	-0.22779413
83	0xbf986811	-1.1906759
84	0x3f44a048	0.7680707
85	0xbf1139f1	-0.56729037
86	0xbcb60482	-0.022218946
87	0xbec7c302	-0.39015967
88	0xbfc162cc	-1.5108275
89	0x3f4862a5	0.7827552
90	0x3f899bc1	1.0750657
91	0xbf6c3808	-0.92272997
92	0xbdede2b9	-0.116155095
93	0x3f5a6956	0.8531698
94	0x3e689005	0.22711189
95	0x3fac83f0	1.3477764
96	0x3eddf992	0.4335447
97	0xbf0ed99c	-0.55800796
98	0xbf9d7e72	-1.2304213
99	0x3f53708d	0.82593614
100	0x3e988d83	0.29795465
101	0x3d452057	0.048126545
102	0xbf0cb06b	-0.5495669
103	0x3f2b532a	0.66923773
104	0xbdf758ce	-0.12077485
105	0x3f85ee32	1.0463316
106	0xbed62213	-0.41822872
107	0xbf8a739a	-1.0816529
108	0x3f050b50	0.51970387
109	0xbee2a465	-0.44266048
110	0x3e833b0c	0.25630987
111	0xbec17cd9	-0.37790564
112	0x3e5e22af	0.21692918
113	0xbf40f677	-0.75376076
114	0xbec8c816	-0.39215153
115	0x3eaa082a	0.33209354
116	0xbe619edf	-0.22033261
117	0xbec69cc0	-0.38791466
118	0xbda9e2cf	-0.082952134
119	0x3f38388b	0.7196128
120	0x3d6dd67e	0.058065884
121	0x3dc8678e	0.097853765
122	0xbd8152d2	-0.06314625
123	0x3e857686	0.2606699
124	0xbf2702fc	-0.6523893
125	0xbfbc3a41	-1.4705278
126	0x3e1c40bf	0.15259074
127	0x3d051d2c	0.032498524
128	0x3e6bff10	0.23046517
129	0x3e86e675	0.263477
130	0xbd57dd7f	-0.05270147
131	0xbf1460bf	-0.5796012
132	0x3fa250da	1.2680924
133	0x3f9f4c0a	1.244508
134	0x3ea06e40	0.31334114
135	0xbf87d9ca	-1.0613339
136	0x3ebb481b	0.3657845
137	0xbf45d9d2	-0.7728549
138	0x3f964a67	1.1741456
139	0xbf805a14	-1.002749
140	0xbe1c6b5a	-0.15275326
141	0xbf3badfc	-0.73312354
142	0xbf4a9506	-0.7913364
143	0xbe983f10	-0.29735613
144	0x3ec32dee	0.3812098
145	0xbf8658e5	-1.0495878
146	0xbf28ddd4	-0.6596348
147	0xbc37fde1	-0.011229963
148	0x3efe5231	0.49672082
149	0x3e7e28f4	0.2482031
150	0xbc97552c	-0.01847323
151	0xbed82cab	-0.4222158
152	0x3f215b4c	0.6302993
153	0xbd8e24d9	-0.06940622
154	0x3eafeaf1	0.34358934
155	0x3f8eacc0	1.1146469
156	0x3f8575bf	1.0426558
157	0xbf2ae082	-0.6674882
158	0x3f03182e	0.5120877
159	0xbf7d2414	-0.98883176
160	0xbf93541f	-1.1510047
161	0xbf8ae7c3	-1.0851978
162	0x3ed3a41c	0.41336143
163	0xbea9efcb	-0.3319076
164	0x3f348004	0.70507836
165	0xbe15c5b8	-0.14626205
166	0xbeaf5463	-0.3424407
167	0xbf5f34c6	-0.871899
168	0x3ec6f922	0.38861948
169	0xbf22280d	-0.6334236
170	0xbef6f433	-0.48233184
171	0x3e8853fc	0.26626575
172	0x3dad1384	0.08450988
173	0x3f561834	0.8363068
174	0x3f131bf8	0.5746455
175	0x3f85b8cb	1.0447019
176	0x3ee4866c	0.44633806
177	0x3f77dc62	0.9682065
178	0xbe057c59	-0.13035716
179	0x3f87918d	1.0591294
180	0x3f8b5fc7	1.0888604
181	0x3dc359bc	0.095386
182	0x3f0e3af3	0.555587
183	0x3f3b460f	0.73153776
184	0xbf31ce56	-0.6945547
185	0xbf6026d1	-0.8755923
186	0x3cf1a017	0.029495282
187	0x3f1133c9	0.5671964
188	0xbf86d45b	-1.0533556
189	0xbe6c1a05	-0.230568
190	0x3f526b8e	0.82195365
191	0xbf2fcaee	-0.6866902
192	0x3e11f890	0.14254975
193	0xbeb456cb	-0.35222468
194	0xbccdf25b	-0.025139978
195	0xbecf3513	-0.4047018
196	0x3f598a5a	0.8497673
197	0xbf7ee82a	-0.99573004
198	0x3f7bbdd7	0.9833655
199	0x3d6ea0af	0.05825871
200	0xbd11a625	-0.03555884
201	0xbf1a9fe5	-0.6040023
202	0x3f01ffa2	0.5078069
203	0x3e2ae49c	0.1668877
204	0x3e0838d6	0.13302931
205	0x3ef7cfb8	0.48400664
206	0x3e872cf3	0.2640148
207	0xbd75a383	-0.05997039
208	0xbfb2c1e7	-1.3965424
209	0x3ea4546c	0.3209566
210	0xbf728090	-0.9472742
211	0x3f67c281	0.90531164
212	0xbeb7d1e6	-0.35902327
213	0xbdd8d8d7	-0.10588234
214	0xbf684f39	-0.90745884
215	0x3f9c1e76	1.2196796
216	0xbde87211	-0.113498814
217	0x3f67024e	0.9023789
218	0x3f8d47fb	1.1037592
219	0x3ded14c7	0.115762286
220	0x3e92488c	0.28570974
221	0x3f41c0b3	0.7568466
222	0x3f6c8ca4	0.924021
223	0x3d701c12	0.05862052
224	0x3df5cce7	0.12001973
225	0xbf18bc61	-0.59662443
226	0xbef5f76b	-0.48040327
227	0x3f3b9d0e	0.7328652
228	0x3eba14d7	0.36344025
229	0x3f88016d	1.0625435
230	0xbf4d4bd5	-0.80193835
231	0xbf4ccb5c	-0.799978
232	0x3e9d33b4	0.3070351
233	0x3e94871b	0.29009327
234	0x3fcfbdd0	1.6229801
235	0x3f07eba6	0.53093946
236	0x3f5e4163	0.8681852
237	0x3ee2f2bc	0.44325817
238	0x3de78e84	0.113064796
239	0xbed8c30f	-0.42336318
240	0x3f853250	1.0405979
241	0xbf3f0923	-0.74623317
242	0x3f8e1d65	1.110272
243	0x3f78f6e6	0.9725174
244	0x3e04d8c8	0.1297332
245	0xbe23cca5	-0.15996034
246	0xbf7ab4b8	-0.97932005
247	0x3f87b243	1.0601276
248	0xbe94993c	-0.2902316
249	0xbf985169	-1.1899844
250	0xbdcb649f	-0.09931301
251	0x3e9519bc	0.29121196
252	0xbfbae250	-1.4600315
253	0x3e373d95	0.17894585
254	0x3b238a8f	0.0024954414
255	0x3ef540c9	0.4790099

fc3.bias f4 [4]
0	0xbe547801	-0.20748903
1	0x3e64f4ca	0.22359005
2	0xbed000b4	-0.40625536
3	0xbf0cf13c	-0.55055594
